…
I0610 18:11:11.664556  1866 solver.cpp:91] Creating training net from net file: net.prototxt
I0610 18:11:11.665328  1866 net.cpp:322] The NetState phase (0) differed from the phase (1) specified by a rule in layer data
I0610 18:11:11.665629  1866 net.cpp:58] Initializing net from parameters: 
name: "face-loc-pro-3"
state {
  phase: TRAIN
  level: 0
  stage: ""
}
layer {
  name: "data"
  type: "HDF5Data"
  top: "I"
  top: "Id"
  include {
    phase: TRAIN
  }
  hdf5_data_param {
    source: "../data/webface.txt"
    batch_size: 128
    shuffle: true
    scale: 0.00390625
    mirror: true
  }
}
layer {
  name: "tform/conv1"
  type: "Convolution"
  bottom: "I"
  top: "tform/conv1"
  param {
    lr_mult: 0.1
    decay_mult: 0.1
  }
  param {
    lr_mult: 0.2
    decay_mult: 0
  }
  convolution_param {
    num_output: 24
    pad: 0
    kernel_size: 5
    stride: 1
    weight_filler {
      type: "xavier"
    }
    bias_filler {
      type: "constant"
      value: 0
    }
  }
}
layer {
  name: "tform/pool1"
  type: "Pooling"
  bottom: "tform/conv1"
  top: "tform/pool1"
  pooling_param {
    pool: MAX
    kernel_size: 2
    stride: 2
  }
}
layer {
  name: "tform/relu1"
  type: "PReLU"
  bottom: "tform/pool1"
  top: "tform/pool1"
  param {
    lr_mult: 0.1
    decay_mult: 0
  }
}
layer {
  name: "tform/conv2"
  type: "Convolution"
  bottom: "tform/pool1"
  top: "tform/conv2"
  param {
    lr_mult: 0.1
    decay_mult: 0.1
  }
  param {
    lr_mult: 0.2
    decay_mult: 0
  }
  convolution_param {
    num_output: 48
    pad: 0
    kernel_size: 3
    stride: 1
    weight_filler {
      type: "xavier"
    }
    bias_filler {
      type: "constant"
      value: 0
    }
  }
}
layer {
  name: "tform/pool2"
  type: "Pooling"
  bottom: "tform/conv2"
  top: "tform/pool2"
  pooling_param {
    pool: MAX
    kernel_size: 2
    stride: 2
  }
}
layer {
  name: "tform/relu2"
  type: "PReLU"
  bottom: "tform/pool2"
  top: "tform/pool2"
  param {
    lr_mult: 0.1
    decay_mult: 0
  }
}
layer {
  name: "tform/conv3"
  type: "Convolution"
  bottom: "tform/pool2"
  top: "tform/conv3"
  param {
    lr_mult: 0.1
    decay_mult: 0.1
  }
  param {
    lr_mult: 0.2
    decay_mult: 0
  }
  convolution_param {
    num_output: 96
    pad: 0
    kernel_size: 3
    stride: 1
    weight_filler {
      type: "xavier"
    }
    bias_filler {
      type: "constant"
      value: 0
    }
  }
}
layer {
  name: "tform/pool3"
  type: "Pooling"
  bottom: "tform/conv3"
  top: "tform/pool3"
  pooling_param {
    pool: MAX
    kernel_size: 2
    stride: 2
  }
}
layer {
  name: "tform/relu3"
  type: "PReLU"
  bottom: "tform/pool3"
  top: "tform/pool3"
  param {
    lr_mult: 0.1
    decay_mult: 0
  }
}
layer {
  name: "tform/ip1"
  type: "InnerProduct"
  bottom: "tform/pool3"
  top: "tform/ip1"
  param {
    lr_mult: 0.1
    decay_mult: 0.1
  }
  param {
    lr_mult: 0.2
    decay_mult: 0
  }
  inner_product_param {
    num_output: 64
    weight_filler {
      type: "gaussian"
      std: 0.03
    }
    bias_filler {
      type: "constant"
      value: 0
    }
  }
}
layer {
  name: "tform/ip1r"
  type: "PReLU"
  bottom: "tform/ip1"
  top: "tform/ip1"
  param {
    lr_mult: 0.1
    decay_mult: 0
  }
}
layer {
  name: "tform/ip2"
  type: "InnerProduct"
  bottom: "tform/ip1"
  top: "tform/ip2"
  param {
    lr_mult: 0.1
    decay_mult: 0.1
  }
  param {
    lr_mult: 0.2
    decay_mult: 0
  }
  inner_product_param {
    num_output: 64
    weight_filler {
      type: "gaussian"
      std: 0.01
    }
    bias_filler {
      type: "constant"
      value: 0
    }
  }
}
layer {
  name: "tform/ip2r"
  type: "PReLU"
  bottom: "tform/ip2"
  top: "tform/ip2"
  param {
    lr_mult: 0.1
    decay_mult: 0
  }
}
layer {
  name: "tform"
  type: "InnerProduct"
  bottom: "tform/ip2"
  top: "tform"
  param {
    lr_mult: 0.1
    decay_mult: 0.1
  }
  param {
    lr_mult: 0.1
    decay_mult: 0.2
  }
  inner_product_param {
    num_output: 8
    weight_filler {
      type: "gaussian"
      std: 0.01
    }
    bias_filler {
      type: "value"
      values: 0.7
      values: 0
      values: 0
      values: 0
      values: 0.7
      values: 0
      values: 0
      values: 0
    }
  }
}
layer {
  name: "st"
  type: "SpatialTransformer"
  bottom: "I"
  bottom: "tform"
  top: "st_output"
  st_param {
    output_H: 96
    output_W: 96
    transform_type: "projective"
  }
}
layer {
  name: "tmp/conv1a"
  type: "Convolution"
  bottom: "st_output"
  top: "conv1a"
  param {
    lr_mult: 1
    decay_mult: 1
  }
  param {
    lr_mult: 2
    decay_mult: 0
  }
  convolution_param {
    num_output: 32
    kernel_size: 3
    stride: 1
    weight_filler {
      type: "xavier"
    }
    bias_filler {
      type: "constant"
      value: 0
    }
  }
}
layer {
  name: "tmp/relu1a"
  type: "PReLU"
  bottom: "conv1a"
  top: "conv1a"
}
layer {
  name: "tmp/pool1b"
  type: "Pooling"
  bottom: "conv1a"
  top: "pool1b"
  pooling_param {
    pool: MAX
    kernel_size: 2
    stride: 2
  }
}
layer {
  name: "tmp/conv2"
  type: "Convolution"
  bottom: "pool1b"
  top: "conv2"
  param {
    lr_mult: 1
    decay_mult: 1
  }
  param {
    lr_mult: 2
    decay_mult: 0
  }
  convolution_param {
    num_output: 64
    kernel_size: 3
    stride: 1
    weight_filler {
      type: "xavier"
    }
    bias_filler {
      type: "constant"
      value: 0
    }
  }
}
layer {
  name: "tmp/relu2"
  type: "PReLU"
  bottom: "conv2"
  top: "conv2"
}
layer {
  name: "tmp/pool2"
  type: "Pooling"
  bottom: "conv2"
  top: "pool2"
  pooling_param {
    pool: MAX
    kernel_size: 2
    stride: 2
  }
}
layer {
  name: "tmp/conv3"
  type: "Convolution"
  bottom: "pool2"
  top: "conv3"
  param {
    lr_mult: 1
    decay_mult: 1
  }
  param {
    lr_mult: 2
    decay_mult: 0
  }
  convolution_param {
    num_output: 128
    kernel_size: 3
    stride: 1
    weight_filler {
      type: "xavier"
    }
    bias_filler {
      type: "constant"
      value: 0
    }
  }
}
layer {
  name: "tmp/relu3"
  type: "PReLU"
  bottom: "conv3"
  top: "conv3"
}
layer {
  name: "tmp/pool3"
  type: "Pooling"
  bottom: "conv3"
  top: "pool3"
  pooling_param {
    pool: MAX
    kernel_size: 2
    stride: 2
  }
}
layer {
  name: "tmp/conv4"
  type: "Convolution"
  bottom: "pool3"
  top: "conv4"
  param {
    lr_mult: 1
    decay_mult: 1
  }
  param {
    lr_mult: 2
    decay_mult: 0
  }
  convolution_param {
    num_output: 256
    kernel_size: 3
    stride: 1
    weight_filler {
      type: "xavier"
    }
    bias_filler {
      type: "constant"
      value: 0
    }
  }
}
layer {
  name: "tmp/relu4"
  type: "PReLU"
  bottom: "conv4"
  top: "conv4"
}
layer {
  name: "tmp/pool4"
  type: "Pooling"
  bottom: "conv4"
  top: "pool4"
  pooling_param {
    pool: MAX
    kernel_size: 2
    stride: 2
  }
}
layer {
  name: "tmp/fc5"
  type: "InnerProduct"
  bottom: "pool4"
  top: "fc5"
  param {
    lr_mult: 1
    decay_mult: 1
  }
  param {
    lr_mult: 2
    decay_mult: 0
  }
  inner_product_param {
    num_output: 512
    weight_filler {
      type: "xavier"
    }
    bias_filler {
      type: "constant"
      value: 0
    }
  }
}
layer {
  name: "tmp/classifier"
  type: "InnerProduct"
  bottom: "fc5"
  top: "classifier"
  param {
    lr_mult: 1
    decay_mult: 1
  }
  include {
    phase: TRAIN
  }
  inner_product_param {
    num_output: 10575
    bias_term: false
    weight_filler {
      type: "xavier"
    }
  }
}
layer {
  name: "loss/softmax"
  type: "SoftmaxWithLoss"
  bottom: "classifier"
  bottom: "Id"
  top: "loss/softmax"
  include {
    phase: TRAIN
  }
}
layer {
  name: "loss/center"
  type: "CenterLoss"
  bottom: "fc5"
  bottom: "Id"
  top: "loss/center"
  loss_weight: 0.005
  param {
    lr_mult: 1
    decay_mult: 1
  }
  include {
    phase: TRAIN
  }
  center_loss_param {
    num_output: 10575
    center_filler {
      type: "xavier"
    }
  }
}
I0610 18:11:11.666849  1866 layer_factory.hpp:77] Creating layer data
I0610 18:11:11.666870  1866 net.cpp:100] Creating Layer data
I0610 18:11:11.666877  1866 net.cpp:408] data -> I
I0610 18:11:11.666900  1866 net.cpp:408] data -> Id
I0610 18:11:11.666911  1866 hdf5_data_layer.cpp:283] Loading list of HDF5 filenames from: ../data/webface.txt
I0610 18:11:11.666955  1866 hdf5_data_layer.cpp:304] Number of HDF5 files: 4
I0610 18:11:11.667379  1866 hdf5_data_layer.cpp:128] Loading HDF5 file: ../data/webface4.h5 idx 0
I0610 18:11:11.668614  1866 hdf5.cpp:35] Datatype class: H5T_INTEGER
I0610 18:11:18.485133  1866 hdf5_data_layer.cpp:333] Shuffled 110414 rows, first:59214
I0610 18:11:18.485322  1866 net.cpp:150] Setting up data
I0610 18:11:18.485363  1866 net.cpp:157] Top shape: 128 1 128 128 (2097152)
I0610 18:11:18.485371  1866 net.cpp:157] Top shape: 128 1 (128)
I0610 18:11:18.485375  1866 net.cpp:165] Memory required for data: 8389120
I0610 18:11:18.485383  1866 layer_factory.hpp:77] Creating layer I_data_0_split
I0610 18:11:18.485396  1866 net.cpp:100] Creating Layer I_data_0_split
I0610 18:11:18.485401  1866 net.cpp:434] I_data_0_split <- I
I0610 18:11:18.485416  1866 net.cpp:408] I_data_0_split -> I_data_0_split_0
I0610 18:11:18.485427  1866 net.cpp:408] I_data_0_split -> I_data_0_split_1
I0610 18:11:18.485532  1866 net.cpp:150] Setting up I_data_0_split
I0610 18:11:18.485541  1866 net.cpp:157] Top shape: 128 1 128 128 (2097152)
I0610 18:11:18.485546  1866 net.cpp:157] Top shape: 128 1 128 128 (2097152)
I0610 18:11:18.485550  1866 net.cpp:165] Memory required for data: 25166336
I0610 18:11:18.485554  1866 layer_factory.hpp:77] Creating layer Id_data_1_split
I0610 18:11:18.485561  1866 net.cpp:100] Creating Layer Id_data_1_split
I0610 18:11:18.485564  1866 net.cpp:434] Id_data_1_split <- Id
I0610 18:11:18.485570  1866 net.cpp:408] Id_data_1_split -> Id_data_1_split_0
I0610 18:11:18.485576  1866 net.cpp:408] Id_data_1_split -> Id_data_1_split_1
I0610 18:11:18.485615  1866 net.cpp:150] Setting up Id_data_1_split
I0610 18:11:18.485622  1866 net.cpp:157] Top shape: 128 1 (128)
I0610 18:11:18.485626  1866 net.cpp:157] Top shape: 128 1 (128)
I0610 18:11:18.485630  1866 net.cpp:165] Memory required for data: 25167360
I0610 18:11:18.485632  1866 layer_factory.hpp:77] Creating layer tform/conv1
I0610 18:11:18.485652  1866 net.cpp:100] Creating Layer tform/conv1
I0610 18:11:18.485657  1866 net.cpp:434] tform/conv1 <- I_data_0_split_0
I0610 18:11:18.485664  1866 net.cpp:408] tform/conv1 -> tform/conv1
I0610 18:11:18.487587  1868 hdf5_data_layer.cpp:128] Loading HDF5 file: ../data/webface1.h5 idx 1
I0610 18:11:21.659128  1866 net.cpp:150] Setting up tform/conv1
I0610 18:11:21.659163  1866 net.cpp:157] Top shape: 128 24 124 124 (47235072)
I0610 18:11:21.659168  1866 net.cpp:165] Memory required for data: 214107648
I0610 18:11:21.659188  1866 layer_factory.hpp:77] Creating layer tform/pool1
I0610 18:11:21.659205  1866 net.cpp:100] Creating Layer tform/pool1
I0610 18:11:21.659210  1866 net.cpp:434] tform/pool1 <- tform/conv1
I0610 18:11:21.659217  1866 net.cpp:408] tform/pool1 -> tform/pool1
I0610 18:11:21.659271  1866 net.cpp:150] Setting up tform/pool1
I0610 18:11:21.659279  1866 net.cpp:157] Top shape: 128 24 62 62 (11808768)
I0610 18:11:21.659282  1866 net.cpp:165] Memory required for data: 261342720
I0610 18:11:21.659286  1866 layer_factory.hpp:77] Creating layer tform/relu1
I0610 18:11:21.659294  1866 net.cpp:100] Creating Layer tform/relu1
I0610 18:11:21.659298  1866 net.cpp:434] tform/relu1 <- tform/pool1
I0610 18:11:21.659303  1866 net.cpp:395] tform/relu1 -> tform/pool1 (in-place)
I0610 18:11:21.659456  1866 net.cpp:150] Setting up tform/relu1
I0610 18:11:21.659466  1866 net.cpp:157] Top shape: 128 24 62 62 (11808768)
I0610 18:11:21.659503  1866 net.cpp:165] Memory required for data: 308577792
I0610 18:11:21.659512  1866 layer_factory.hpp:77] Creating layer tform/conv2
I0610 18:11:21.659523  1866 net.cpp:100] Creating Layer tform/conv2
I0610 18:11:21.659528  1866 net.cpp:434] tform/conv2 <- tform/pool1
I0610 18:11:21.659533  1866 net.cpp:408] tform/conv2 -> tform/conv2
I0610 18:11:21.660976  1866 net.cpp:150] Setting up tform/conv2
I0610 18:11:21.660991  1866 net.cpp:157] Top shape: 128 48 60 60 (22118400)
I0610 18:11:21.660995  1866 net.cpp:165] Memory required for data: 397051392
I0610 18:11:21.661005  1866 layer_factory.hpp:77] Creating layer tform/pool2
I0610 18:11:21.661011  1866 net.cpp:100] Creating Layer tform/pool2
I0610 18:11:21.661015  1866 net.cpp:434] tform/pool2 <- tform/conv2
I0610 18:11:21.661020  1866 net.cpp:408] tform/pool2 -> tform/pool2
I0610 18:11:21.661056  1866 net.cpp:150] Setting up tform/pool2
I0610 18:11:21.661063  1866 net.cpp:157] Top shape: 128 48 30 30 (5529600)
I0610 18:11:21.661067  1866 net.cpp:165] Memory required for data: 419169792
I0610 18:11:21.661070  1866 layer_factory.hpp:77] Creating layer tform/relu2
I0610 18:11:21.661077  1866 net.cpp:100] Creating Layer tform/relu2
I0610 18:11:21.661079  1866 net.cpp:434] tform/relu2 <- tform/pool2
I0610 18:11:21.661084  1866 net.cpp:395] tform/relu2 -> tform/pool2 (in-place)
I0610 18:11:21.661671  1866 net.cpp:150] Setting up tform/relu2
I0610 18:11:21.661684  1866 net.cpp:157] Top shape: 128 48 30 30 (5529600)
I0610 18:11:21.661686  1866 net.cpp:165] Memory required for data: 441288192
I0610 18:11:21.661692  1866 layer_factory.hpp:77] Creating layer tform/conv3
I0610 18:11:21.661701  1866 net.cpp:100] Creating Layer tform/conv3
I0610 18:11:21.661705  1866 net.cpp:434] tform/conv3 <- tform/pool2
I0610 18:11:21.661711  1866 net.cpp:408] tform/conv3 -> tform/conv3
I0610 18:11:21.662719  1866 net.cpp:150] Setting up tform/conv3
I0610 18:11:21.662732  1866 net.cpp:157] Top shape: 128 96 28 28 (9633792)
I0610 18:11:21.662736  1866 net.cpp:165] Memory required for data: 479823360
I0610 18:11:21.662744  1866 layer_factory.hpp:77] Creating layer tform/pool3
I0610 18:11:21.662750  1866 net.cpp:100] Creating Layer tform/pool3
I0610 18:11:21.662755  1866 net.cpp:434] tform/pool3 <- tform/conv3
I0610 18:11:21.662760  1866 net.cpp:408] tform/pool3 -> tform/pool3
I0610 18:11:21.662796  1866 net.cpp:150] Setting up tform/pool3
I0610 18:11:21.662803  1866 net.cpp:157] Top shape: 128 96 14 14 (2408448)
I0610 18:11:21.662806  1866 net.cpp:165] Memory required for data: 489457152
I0610 18:11:21.662809  1866 layer_factory.hpp:77] Creating layer tform/relu3
I0610 18:11:21.662814  1866 net.cpp:100] Creating Layer tform/relu3
I0610 18:11:21.662818  1866 net.cpp:434] tform/relu3 <- tform/pool3
I0610 18:11:21.662822  1866 net.cpp:395] tform/relu3 -> tform/pool3 (in-place)
I0610 18:11:21.662894  1866 net.cpp:150] Setting up tform/relu3
I0610 18:11:21.662901  1866 net.cpp:157] Top shape: 128 96 14 14 (2408448)
I0610 18:11:21.662904  1866 net.cpp:165] Memory required for data: 499090944
I0610 18:11:21.662911  1866 layer_factory.hpp:77] Creating layer tform/ip1
I0610 18:11:21.662922  1866 net.cpp:100] Creating Layer tform/ip1
I0610 18:11:21.662926  1866 net.cpp:434] tform/ip1 <- tform/pool3
I0610 18:11:21.662932  1866 net.cpp:408] tform/ip1 -> tform/ip1
I0610 18:11:21.674851  1866 net.cpp:150] Setting up tform/ip1
I0610 18:11:21.674865  1866 net.cpp:157] Top shape: 128 64 (8192)
I0610 18:11:21.674868  1866 net.cpp:165] Memory required for data: 499123712
I0610 18:11:21.674875  1866 layer_factory.hpp:77] Creating layer tform/ip1r
I0610 18:11:21.674881  1866 net.cpp:100] Creating Layer tform/ip1r
I0610 18:11:21.674885  1866 net.cpp:434] tform/ip1r <- tform/ip1
I0610 18:11:21.674890  1866 net.cpp:395] tform/ip1r -> tform/ip1 (in-place)
I0610 18:11:21.674952  1866 net.cpp:150] Setting up tform/ip1r
I0610 18:11:21.674958  1866 net.cpp:157] Top shape: 128 64 (8192)
I0610 18:11:21.674962  1866 net.cpp:165] Memory required for data: 499156480
I0610 18:11:21.674967  1866 layer_factory.hpp:77] Creating layer tform/ip2
I0610 18:11:21.674985  1866 net.cpp:100] Creating Layer tform/ip2
I0610 18:11:21.674990  1866 net.cpp:434] tform/ip2 <- tform/ip1
I0610 18:11:21.674995  1866 net.cpp:408] tform/ip2 -> tform/ip2
I0610 18:11:21.675104  1866 net.cpp:150] Setting up tform/ip2
I0610 18:11:21.675112  1866 net.cpp:157] Top shape: 128 64 (8192)
I0610 18:11:21.675115  1866 net.cpp:165] Memory required for data: 499189248
I0610 18:11:21.675120  1866 layer_factory.hpp:77] Creating layer tform/ip2r
I0610 18:11:21.675127  1866 net.cpp:100] Creating Layer tform/ip2r
I0610 18:11:21.675129  1866 net.cpp:434] tform/ip2r <- tform/ip2
I0610 18:11:21.675134  1866 net.cpp:395] tform/ip2r -> tform/ip2 (in-place)
I0610 18:11:21.675191  1866 net.cpp:150] Setting up tform/ip2r
I0610 18:11:21.675199  1866 net.cpp:157] Top shape: 128 64 (8192)
I0610 18:11:21.675201  1866 net.cpp:165] Memory required for data: 499222016
I0610 18:11:21.675206  1866 layer_factory.hpp:77] Creating layer tform
I0610 18:11:21.675215  1866 net.cpp:100] Creating Layer tform
I0610 18:11:21.675218  1866 net.cpp:434] tform <- tform/ip2
I0610 18:11:21.675223  1866 net.cpp:408] tform -> tform
I0610 18:11:21.675304  1866 net.cpp:150] Setting up tform
I0610 18:11:21.675312  1866 net.cpp:157] Top shape: 128 8 (1024)
I0610 18:11:21.675315  1866 net.cpp:165] Memory required for data: 499226112
I0610 18:11:21.675323  1866 layer_factory.hpp:77] Creating layer st
I0610 18:11:21.675333  1866 net.cpp:100] Creating Layer st
I0610 18:11:21.675338  1866 net.cpp:434] st <- I_data_0_split_1
I0610 18:11:21.675341  1866 net.cpp:434] st <- tform
I0610 18:11:21.675346  1866 net.cpp:408] st -> st_output
I0610 18:11:21.675355  1866 spatial_transformer_layer.cpp:47] Spatial Transformer: output (96,96), type: projective
I0610 18:11:21.675407  1866 net.cpp:150] Setting up st
I0610 18:11:21.675415  1866 net.cpp:157] Top shape: 128 1 96 96 (1179648)
I0610 18:11:21.675417  1866 net.cpp:165] Memory required for data: 503944704
I0610 18:11:21.675421  1866 layer_factory.hpp:77] Creating layer tmp/conv1a
I0610 18:11:21.675431  1866 net.cpp:100] Creating Layer tmp/conv1a
I0610 18:11:21.675434  1866 net.cpp:434] tmp/conv1a <- st_output
I0610 18:11:21.675441  1866 net.cpp:408] tmp/conv1a -> conv1a
I0610 18:11:21.676220  1866 net.cpp:150] Setting up tmp/conv1a
I0610 18:11:21.676235  1866 net.cpp:157] Top shape: 128 32 94 94 (36192256)
I0610 18:11:21.676239  1866 net.cpp:165] Memory required for data: 648713728
I0610 18:11:21.676245  1866 layer_factory.hpp:77] Creating layer tmp/relu1a
I0610 18:11:21.676251  1866 net.cpp:100] Creating Layer tmp/relu1a
I0610 18:11:21.676255  1866 net.cpp:434] tmp/relu1a <- conv1a
I0610 18:11:21.676260  1866 net.cpp:395] tmp/relu1a -> conv1a (in-place)
I0610 18:11:21.677022  1866 net.cpp:150] Setting up tmp/relu1a
I0610 18:11:21.677036  1866 net.cpp:157] Top shape: 128 32 94 94 (36192256)
I0610 18:11:21.677039  1866 net.cpp:165] Memory required for data: 793482752
I0610 18:11:21.677044  1866 layer_factory.hpp:77] Creating layer tmp/pool1b
I0610 18:11:21.677052  1866 net.cpp:100] Creating Layer tmp/pool1b
I0610 18:11:21.677055  1866 net.cpp:434] tmp/pool1b <- conv1a
I0610 18:11:21.677060  1866 net.cpp:408] tmp/pool1b -> pool1b
I0610 18:11:21.677091  1866 net.cpp:150] Setting up tmp/pool1b
I0610 18:11:21.677098  1866 net.cpp:157] Top shape: 128 32 47 47 (9048064)
I0610 18:11:21.677101  1866 net.cpp:165] Memory required for data: 829675008
I0610 18:11:21.677104  1866 layer_factory.hpp:77] Creating layer tmp/conv2
I0610 18:11:21.677114  1866 net.cpp:100] Creating Layer tmp/conv2
I0610 18:11:21.677117  1866 net.cpp:434] tmp/conv2 <- pool1b
I0610 18:11:21.677122  1866 net.cpp:408] tmp/conv2 -> conv2
I0610 18:11:21.677903  1866 net.cpp:150] Setting up tmp/conv2
I0610 18:11:21.677918  1866 net.cpp:157] Top shape: 128 64 45 45 (16588800)
I0610 18:11:21.677922  1866 net.cpp:165] Memory required for data: 896030208
I0610 18:11:21.677928  1866 layer_factory.hpp:77] Creating layer tmp/relu2
I0610 18:11:21.677934  1866 net.cpp:100] Creating Layer tmp/relu2
I0610 18:11:21.677952  1866 net.cpp:434] tmp/relu2 <- conv2
I0610 18:11:21.677959  1866 net.cpp:395] tmp/relu2 -> conv2 (in-place)
I0610 18:11:21.678603  1866 net.cpp:150] Setting up tmp/relu2
I0610 18:11:21.678617  1866 net.cpp:157] Top shape: 128 64 45 45 (16588800)
I0610 18:11:21.678620  1866 net.cpp:165] Memory required for data: 962385408
I0610 18:11:21.678625  1866 layer_factory.hpp:77] Creating layer tmp/pool2
I0610 18:11:21.678633  1866 net.cpp:100] Creating Layer tmp/pool2
I0610 18:11:21.678637  1866 net.cpp:434] tmp/pool2 <- conv2
I0610 18:11:21.678642  1866 net.cpp:408] tmp/pool2 -> pool2
I0610 18:11:21.678678  1866 net.cpp:150] Setting up tmp/pool2
I0610 18:11:21.678685  1866 net.cpp:157] Top shape: 128 64 23 23 (4333568)
I0610 18:11:21.678689  1866 net.cpp:165] Memory required for data: 979719680
I0610 18:11:21.678691  1866 layer_factory.hpp:77] Creating layer tmp/conv3
I0610 18:11:21.678701  1866 net.cpp:100] Creating Layer tmp/conv3
I0610 18:11:21.678705  1866 net.cpp:434] tmp/conv3 <- pool2
I0610 18:11:21.678712  1866 net.cpp:408] tmp/conv3 -> conv3
I0610 18:11:21.680057  1866 net.cpp:150] Setting up tmp/conv3
I0610 18:11:21.680069  1866 net.cpp:157] Top shape: 128 128 21 21 (7225344)
I0610 18:11:21.680073  1866 net.cpp:165] Memory required for data: 1008621056
I0610 18:11:21.680080  1866 layer_factory.hpp:77] Creating layer tmp/relu3
I0610 18:11:21.680086  1866 net.cpp:100] Creating Layer tmp/relu3
I0610 18:11:21.680090  1866 net.cpp:434] tmp/relu3 <- conv3
I0610 18:11:21.680097  1866 net.cpp:395] tmp/relu3 -> conv3 (in-place)
I0610 18:11:21.680202  1866 net.cpp:150] Setting up tmp/relu3
I0610 18:11:21.680212  1866 net.cpp:157] Top shape: 128 128 21 21 (7225344)
I0610 18:11:21.680214  1866 net.cpp:165] Memory required for data: 1037522432
I0610 18:11:21.680218  1866 layer_factory.hpp:77] Creating layer tmp/pool3
I0610 18:11:21.680227  1866 net.cpp:100] Creating Layer tmp/pool3
I0610 18:11:21.680230  1866 net.cpp:434] tmp/pool3 <- conv3
I0610 18:11:21.680235  1866 net.cpp:408] tmp/pool3 -> pool3
I0610 18:11:21.680271  1866 net.cpp:150] Setting up tmp/pool3
I0610 18:11:21.680279  1866 net.cpp:157] Top shape: 128 128 11 11 (1982464)
I0610 18:11:21.680281  1866 net.cpp:165] Memory required for data: 1045452288
I0610 18:11:21.680284  1866 layer_factory.hpp:77] Creating layer tmp/conv4
I0610 18:11:21.680294  1866 net.cpp:100] Creating Layer tmp/conv4
I0610 18:11:21.680299  1866 net.cpp:434] tmp/conv4 <- pool3
I0610 18:11:21.680305  1866 net.cpp:408] tmp/conv4 -> conv4
I0610 18:11:21.683292  1866 net.cpp:150] Setting up tmp/conv4
I0610 18:11:21.683305  1866 net.cpp:157] Top shape: 128 256 9 9 (2654208)
I0610 18:11:21.683310  1866 net.cpp:165] Memory required for data: 1056069120
I0610 18:11:21.683315  1866 layer_factory.hpp:77] Creating layer tmp/relu4
I0610 18:11:21.683323  1866 net.cpp:100] Creating Layer tmp/relu4
I0610 18:11:21.683327  1866 net.cpp:434] tmp/relu4 <- conv4
I0610 18:11:21.683332  1866 net.cpp:395] tmp/relu4 -> conv4 (in-place)
I0610 18:11:21.683418  1866 net.cpp:150] Setting up tmp/relu4
I0610 18:11:21.683426  1866 net.cpp:157] Top shape: 128 256 9 9 (2654208)
I0610 18:11:21.683429  1866 net.cpp:165] Memory required for data: 1066685952
I0610 18:11:21.683434  1866 layer_factory.hpp:77] Creating layer tmp/pool4
I0610 18:11:21.683442  1866 net.cpp:100] Creating Layer tmp/pool4
I0610 18:11:21.683446  1866 net.cpp:434] tmp/pool4 <- conv4
I0610 18:11:21.683452  1866 net.cpp:408] tmp/pool4 -> pool4
I0610 18:11:21.683485  1866 net.cpp:150] Setting up tmp/pool4
I0610 18:11:21.683491  1866 net.cpp:157] Top shape: 128 256 5 5 (819200)
I0610 18:11:21.683495  1866 net.cpp:165] Memory required for data: 1069962752
I0610 18:11:21.683498  1866 layer_factory.hpp:77] Creating layer tmp/fc5
I0610 18:11:21.683506  1866 net.cpp:100] Creating Layer tmp/fc5
I0610 18:11:21.683511  1866 net.cpp:434] tmp/fc5 <- pool4
I0610 18:11:21.683516  1866 net.cpp:408] tmp/fc5 -> fc5
I0610 18:11:21.707096  1866 net.cpp:150] Setting up tmp/fc5
I0610 18:11:21.707111  1866 net.cpp:157] Top shape: 128 512 (65536)
I0610 18:11:21.707114  1866 net.cpp:165] Memory required for data: 1070224896
I0610 18:11:21.707134  1866 layer_factory.hpp:77] Creating layer fc5_tmp/fc5_0_split
I0610 18:11:21.707141  1866 net.cpp:100] Creating Layer fc5_tmp/fc5_0_split
I0610 18:11:21.707145  1866 net.cpp:434] fc5_tmp/fc5_0_split <- fc5
I0610 18:11:21.707152  1866 net.cpp:408] fc5_tmp/fc5_0_split -> fc5_tmp/fc5_0_split_0
I0610 18:11:21.707159  1866 net.cpp:408] fc5_tmp/fc5_0_split -> fc5_tmp/fc5_0_split_1
I0610 18:11:21.707190  1866 net.cpp:150] Setting up fc5_tmp/fc5_0_split
I0610 18:11:21.707197  1866 net.cpp:157] Top shape: 128 512 (65536)
I0610 18:11:21.707201  1866 net.cpp:157] Top shape: 128 512 (65536)
I0610 18:11:21.707203  1866 net.cpp:165] Memory required for data: 1070749184
I0610 18:11:21.707207  1866 layer_factory.hpp:77] Creating layer tmp/classifier
I0610 18:11:21.707216  1866 net.cpp:100] Creating Layer tmp/classifier
I0610 18:11:21.707221  1866 net.cpp:434] tmp/classifier <- fc5_tmp/fc5_0_split_0
I0610 18:11:21.707227  1866 net.cpp:408] tmp/classifier -> classifier
I0610 18:11:21.745808  1866 net.cpp:150] Setting up tmp/classifier
I0610 18:11:21.745832  1866 net.cpp:157] Top shape: 128 10575 (1353600)
I0610 18:11:21.745836  1866 net.cpp:165] Memory required for data: 1076163584
I0610 18:11:21.745842  1866 layer_factory.hpp:77] Creating layer loss/softmax
I0610 18:11:21.745854  1866 net.cpp:100] Creating Layer loss/softmax
I0610 18:11:21.745859  1866 net.cpp:434] loss/softmax <- classifier
I0610 18:11:21.745865  1866 net.cpp:434] loss/softmax <- Id_data_1_split_0
I0610 18:11:21.745872  1866 net.cpp:408] loss/softmax -> loss/softmax
…
